model/test.tflite (tflite, 15728 bytes, 3 tensors)

sequential/conv1/Conv2D i1 [8, 3, 3, 3]
00000000: b781 e44b 762d ffc7 f2f8 a497 1bee 3af7
00000010: 6b0b ad00 3fc7 f76b 354b dd42 fd3b 6670
00000020: c34a e82c 5c62 a41c 3052 1427 5c25 7fd5
00000030: ca47 05d8 3627 8c86 45aa 3df5 e345 da4f
00000040: ec49 30f4 dd13 5ae7 5cf1 5446 ea81 c2f8
00000050: e59f fade 0a0c 0e06 1056 fda3 ac31 9dac
00000060: 7f4c 3da1 0420 6ab6 610f b120 e4a2 b58d
00000070: 6797 a10f 1fda 2d8f 813f 3dcf d602 9575
00000080: d5b2 ac6d 66c4 a472 3659 e015 ac9d ae69
00000090: 7368 a7d3 2d2a b3e2 3b0a 98ac 0d7f 3c87
000000a0: a2e2 417b 0807 ef2b 03b5 b9e1 60fc 37d6
000000b0: b6a1 d8d8 adc9 ec37 7f5a 0553 653c e255
000000c0: 2ae1 ffce 9894 c44d 02c9 5edd f251 dd2c
000000d0: 7f09 ec3b 635d d027
-73 -127 -28 75 118 45 -1 -57
-14 -8 -92 -105 27 -18 58 -9
107 11 -83 0 63 -57 -9 107
53 75 -35 66 -3 59 102 112
-61 74 -24 44 92 98 -92 28
48 82 20 39 92 37 127 -43
-54 71 5 -40 54 39 -116 -122
69 -86 61 -11 -29 69 -38 79
-20 73 48 -12 -35 19 90 -25
92 -15 84 70 -22 -127 -62 -8
-27 -97 -6 -34 10 12 14 6
16 86 -3 -93 -84 49 -99 -84
127 76 61 -95 4 32 106 -74
97 15 -79 32 -28 -94 -75 -115
103 -105 -95 15 31 -38 45 -113
-127 63 61 -49 -42 2 -107 117
-43 -78 -84 109 102 -60 -92 114
54 89 -32 21 -84 -99 -82 105
115 104 -89 -45 45 42 -77 -30
59 10 -104 -84 13 127 60 -121
-94 -30 65 123 8 7 -17 43
3 -75 -71 -31 96 -4 55 -42
-74 -95 -40 -40 -83 -55 -20 55
127 90 5 83 101 60 -30 85
42 -31 -1 -50 -104 -108 -60 77
2 -55 94 -35 -14 81 -35 44
127 9 -20 59 99 93 -48 39

sequential/conv2/Conv2D i1 [16, 5, 5, 8]
00000000: 3521 f839 ccc4 2ed4 d4e7 3854 1b1e 0414
00000010: f6b2 5307 2570 ea20 5011 cf04 1035 18af
00000020: 7fae c507 cf50 e0e7 4e0f 28fa c7f9 e9ca
00000030: 1f27 232c 0e01 f2eb 4d0f 2ef2 f048 0d0e
00000040: 3323 006b c3f6 331f 68d5 4a78 3d08 d8ce
00000050: dc41 3e64 bbb8 bc03 2c11 e32b defe f649
00000060: 19ca 2e65 1d63 201e 09f2 4416 4838 154c
00000070: 7031 5b7f 294d d92d f037 e93c dce1 b806
00000080: 3a25 1a27 fbe8 e421 6902 f335 226e d113
00000090: 31e7 5e5b c102 0e59 6adf 2049 4725 4039
000000a0: 1fcf 131c d5b0 3fce 19d2 6378 0039 e4ed
000000b0: 6de7 e7ff 291d 4129 5d1e e232 086f f9e4
000000c0: 5ff4 3530 0c0d d139 163a e3b4 f8c1 0e20
000000d0: c6df 9892 ffb8 200e 0005 d3c0 1ec6 20fd
000000e0: c90e e2b3 d097 ecff 0129 e0c0 28c5 e0e4
000000f0: db17 f828 2e1e c827 2f29 2cd7 373a d916
53 33 -8 57 -52 -60 46 -44
-44 -25 56 84 27 30 4 20
-10 -78 83 7 37 112 -22 32
80 17 -49 4 16 53 24 -81
127 -82 -59 7 -49 80 -32 -25
78 15 40 -6 -57 -7 -23 -54
31 39 35 44 14 1 -14 -21
77 15 46 -14 -16 72 13 14
51 35 0 107 -61 -10 51 31
104 -43 74 120 61 8 -40 -50
-36 65 62 100 -69 -72 -68 3
44 17 -29 43 -34 -2 -10 73
25 -54 46 101 29 99 32 30
9 -14 68 22 72 56 21 76
112 49 91 127 41 77 -39 45
-16 55 -23 60 -36 -31 -72 6
58 37 26 39 -5 -24 -28 33
105 2 -13 53 34 110 -47 19
49 -25 94 91 -63 2 14 89
106 -33 32 73 71 37 64 57
31 -49 19 28 -43 -80 63 -50
25 -46 99 120 0 57 -28 -19
109 -25 -25 -1 41 29 65 41
93 30 -30 50 8 111 -7 -28
95 -12 53 48 12 13 -47 57
22 58 -29 -76 -8 -63 14 32
-58 -33 -104 -110 -1 -72 32 14
0 5 -45 -64 30 -58 32 -3
-55 14 -30 -77 -48 -105 -20 -1
1 41 -32 -64 40 -59 -32 -28
-37 23 -8 40 46 30 -56 39
47 41 44 -41 55 58 -39 22

sequential/FC3/MatMul i1 [3, 2704] scale=0.0011906662 zero_point=0
00000000: fdff ce13 caef e802 1913 e107 ea0e 3dea
00000010: 0826 081d d7de fdf9 e4cb 0b18 e4f5 1906
00000020: 1c02 29dd 15fd ea1a 12ff 1a02 1e1f 0eee
00000030: f6f1 36f1 d63c 1ef8 f7c7 04fd 2317 fdfc
00000040: 2f20 3625 f233 1d32 ecbb ec19 0238 e527
00000050: 3ad7 42f5 dd3e fa37 d2ee 3a14 403b 380a
00000060: 2dc0 1a09 082d e632 cefb 0a1d 222f e01c
00000070: 2a16 fc04 d5fe ec09 f7d3 1cc8 190f e548
00000080: 2900 dad3 e0f1 e424 fd26 0ac8 e6ff d2ec
00000090: 241c d3e3 f391 f1fa f4e7 bfea 081a 4e18
000000a0: 161f c3df e7dc 172c 19f3 1bf6 c600 29fa
000000b0: 04f0 f2dd 0ae3 f8e0 ec0c 0ece cfbc 30e3
000000c0: c90a 0512 0d05 1114 fad9 e7db 15ec 11d9
000000d0: dff1 f123 e7f1 e30d f6e2 fcf1 02f4 48d4
000000e0: fe03 3230 fa1f 1a2a 03f5 3d19 0138 381a
000000f0: 1910 4531 08e9 e8f5 12f6 20fb 35e5 983d
-0.0035719988 -0.0011906662 -0.059533313 0.022622658 -0.06429598 -0.020241326 -0.02857599 0.0023813325
0.029766656 0.022622658 -0.036910653 0.008334664 -0.026194656 0.016669327 0.07263064 -0.026194656
0.00952533 0.045245316 0.00952533 0.03452932 -0.048817314 -0.04048265 -0.0035719988 -0.008334664
-0.033338655 -0.06310531 0.013097328 0.02857599 -0.033338655 -0.013097328 0.029766656 0.0071439976
0.033338655 0.0023813325 0.048817314 -0.041673318 0.02500399 -0.0035719988 -0.026194656 0.030957323
0.021431992 -0.0011906662 0.030957323 0.0023813325 0.035719987 0.036910653 0.016669327 -0.021431992
-0.011906662 -0.017859994 0.06429598 -0.017859994 -0.05000798 0.071439974 0.035719987 -0.00952533
-0.010715996 -0.06786797 0.004762665 -0.0035719988 0.041673318 0.027385322 -0.0035719988 -0.004762665
0.05596131 0.03810132 0.06429598 0.04405465 -0.016669327 0.06072398 0.03452932 0.059533313
-0.023813324 -0.08215597 -0.023813324 0.029766656 0.0023813325 0.06667731 -0.03214799 0.046435982
0.06905864 -0.048817314 0.07858397 -0.013097328 -0.041673318 0.073821306 -0.0071439976 0.06548664
-0.054770645 -0.021431992 0.06905864 0.023813324 0.07620264 0.070249304 0.06667731 0.011906662
0.05357998 -0.07620264 0.030957323 0.010715996 0.00952533 0.05357998 -0.030957323 0.059533313
-0.059533313 -0.005953331 0.011906662 0.03452932 0.04048265 0.05596131 -0.03810132 0.033338655
0.05000798 0.026194656 -0.004762665 0.004762665 -0.051198646 -0.0023813325 -0.023813324 0.010715996
-0.010715996 -0.05357998 0.033338655 -0.06667731 0.029766656 0.017859994 -0.03214799 0.08572797
0.048817314 0.0 -0.045245316 -0.05357998 -0.03810132 -0.017859994 -0.033338655 0.042863984
-0.0035719988 0.045245316 0.011906662 -0.06667731 -0.030957323 -0.0011906662 -0.054770645 -0.023813324
0.042863984 0.033338655 -0.05357998 -0.03452932 -0.015478661 -0.13216396 -0.017859994 -0.0071439976
-0.014287995 -0.029766656 -0.07739331 -0.026194656 0.00952533 0.030957323 0.092871964 0.02857599
0.026194656 0.036910653 -0.07263064 -0.039291985 -0.029766656 -0.042863984 0.027385322 0.052389313
0.029766656 -0.015478661 0.03214799 -0.011906662 -0.06905864 0.0 0.048817314 -0.0071439976
0.004762665 -0.01905066 -0.016669327 -0.041673318 0.011906662 -0.03452932 -0.00952533 -0.03810132
-0.023813324 0.014287995 0.016669327 -0.059533313 -0.058342647 -0.0809653 0.05715198 -0.03452932
-0.06548664 0.011906662 0.005953331 0.021431992 0.015478661 0.005953331 0.020241326 0.023813324
-0.0071439976 -0.046435982 -0.029766656 -0.04405465 0.02500399 -0.023813324 0.020241326 -0.046435982
-0.039291985 -0.017859994 -0.017859994 0.041673318 -0.029766656 -0.017859994 -0.03452932 0.015478661
-0.011906662 -0.035719987 -0.004762665 -0.017859994 0.0023813325 -0.014287995 0.08572797 -0.052389313
-0.0023813325 0.0035719988 0.059533313 0.05715198 -0.0071439976 0.036910653 0.030957323 0.05000798
0.0035719988 -0.013097328 0.07263064 0.029766656 0.0011906662 0.06667731 0.06667731 0.030957323
0.029766656 0.01905066 0.08215597 0.058342647 0.00952533 -0.027385322 -0.02857599 -0.013097328
0.021431992 -0.011906662 0.03810132 -0.005953331 0.06310531 -0.03214799 -0.12382929 0.07263064
